snake_game/snake/rl/model.pth (torch, 282737 bytes, 7 tensors)

linear1.weight f4 [256, 11]
00000000: 3408 c9be ac30 5abe 1185 a73e a4e6 fd3d
00000010: bb36 83be f6ff 41be c8e8 a5bc bf0e f23e
00000020: 36e3 ae3d 8683 ea3e b90b 033e f7d3 313e
00000030: 8595 7b3e dd02 1abf e777 cfbc 0241 043e
00000040: 6e45 fb3d c4c7 edbd 2eed f6bd 343b 98be
00000050: 8136 4a3d a869 2c3d 8efa b43e f8d3 c13d
00000060: 2d8d 163f 52ba 36be 2aa8 85be 7734 983d
00000070: 571d 22be 71a9 a8be 40c2 d3be bf6a b63d
00000080: dd37 04be 3c71 10be dbae 2abf 547f 923e
00000090: 3468 543e 888c 753e 75f5 803e fc24 913e
000000a0: bc3f 2f3e e68b 163e b711 553d a203 293d
000000b0: 1551 15be 2a04 b63e 3bdd 153f c93a 01be
000000c0: a3e5 f4bd 7971 79be c6b5 b6be 6804 1f3e
000000d0: 8208 7abd dbb4 30be d1bb 8cbe b12b b3be
000000e0: bbf1 2c3e fa7f 9ebe dafc 7fbe 37b7 853d
000000f0: d80b 753e 12a4 a1bd cd7d 403e e70a 193e
00000100: 7816 0bbf 3c1a 8ebe 2c86 ed3e 81e6 043e
00000110: 3602 423e eea2 2cbe fc3b 103e 03d9 16be
00000120: 7b0b 1a3e 3ead c9bd 0135 a2be c79d 41be
00000130: 2769 73be cd89 ddbe 8422 06bf 95b0 ad3d
00000140: 304b 873d 2677 ae3e a423 bb3e b5c6 093d
00000150: ed7d 2bbe 6e7c d03d 1466 a3be e541 38be
00000160: 3994 22be 1a47 c0bd 592f d6bc 2ddb 88be
00000170: b168 abbe ef5b 863e 3090 113f e3cc c63e
00000180: cb8b cc3e d011 0cbf d14d dfbe c4d9 6ebd
00000190: d0d8 f4bd bfa2 f2bd 4cf0 2f3e 4cd2 3cbd
000001a0: 40c2 b5be 5c35 243e 3542 f8be 4606 24bf
000001b0: 588d e1be 3a4b 473e 7d28 a2be 9419 13bd
000001c0: 11bb bcbd 20ca e43e 1744 abbe 6cc0 e2bd
000001d0: a5e4 b8be 4045 6abe b0b1 293d 7e95 d23e
000001e0: 94a7 8fbe 66ab 9bbe 0ef6 a7be 42c5 46be
000001f0: 9147 2e3e 8a4a 1c3e 6932 a43e 4974 fd3d
00000200: 7198 2a3c 7962 4fbd 6650 dc3d 317f 263e
00000210: fe74 b13e 01f7 a4be a08c 3abe 728f 3c3e
00000220: 27d6 7a3d ccbf af3d ceff 4cbe 6681 7bbe
00000230: 89f3 58be c5b4 833d 544c 923d 8d0c 1ebe
00000240: 00e5 0bbd 8a93 f3bd 7470 d4bd 58eb 79be
00000250: 761b 37be 90d3 d03c 806d 4abb e878 7abd
00000260: 80bf 06bc 00ca a53c 0023 8bbe b099 f7bc
00000270: 681a 3abd 60ad 1b3c 6bba 85be cfd3 ad3d
00000280: f5c6 92be 6c51 68be a049 a3bd 4634 5fbe
00000290: fcc8 153e 43fb aa3d 4865 e73e 6bcc a43d
000002a0: 64d2 8ebe a307 44bd 2014 793e 076f c83e
000002b0: f66d 74be aa86 c1bd 2c19 14be 0621 59be
000002c0: 3f5e b93e e739 0ebe 326d 79be 35a1 16bd
000002d0: 8191 4c3d 643c 1cbe 74b4 c9bd f8cb e43a
000002e0: b610 0e3e 800e a93e 3c01 433e e8f2 b03e
000002f0: 12ac 35ba 7a08 9bbe a291 76be eda5 823e
00000300: 2fa0 9c3c dce4 a9be aa90 bf3e 4bbb d2be
00000310: de56 943c f7a6 efbe affb 24be 2827 8e3c
00000320: 1859 68bd e0c3 69be 2db7 48be fbcb 8abe
00000330: cac3 b63e c915 923e 29e7 abbe 7bb5 dfbe
00000340: 72c1 15bf 560f 13bc 8adb 9a3d 0968 773d
00000350: 1ec8 35be 0730 83be 0c0c 95be dcc3 233e
00000360: 5020 3fbe efc2 463e 06bc 4ebe ad5f 86be
00000370: 5f2b 0ebe 8794 ab3e aab5 163f f36a 6ebc
00000380: 3d5c 5abe dcc2 9fbd 242e 10be 7bc0 7d3d
00000390: 55c6 3dbe faf7 4bbe 6171 6fbe 167c e5bd
000003a0: a80f 803e 913d 63be 6df9 eebd 358e 48be
000003b0: 68ae c3be 6f13 3bbe bb74 3bbd e3f4 80bd
000003c0: c3cb 2dbe ad01 ef39 a275 adbe a681 bfbe
000003d0: 0ccd 903e aea7 47be 5a93 fbbd 03ed 14be
000003e0: 27e0 41be a31f bb3e 2797 c63e 90ca c63e
000003f0: 3879 be3e 6d5b 4c3e a858 d4be 7a51 ac3e
-0.3926407 -0.2130763 0.3271871 0.12397507 -0.25627694 -0.18945298 -0.0202526 0.47276875
0.08539431 0.4580347 0.1279744 0.17366014 0.24568756 -0.6016062 -0.025325729 0.12915424
0.12269102 -0.11610368 -0.12056957 -0.29732668 0.049368385 0.04209295 0.35347408 0.09464258
0.5880917 -0.17844513 -0.26104861 0.07431882 -0.15831505 -0.32941774 -0.41359138 0.08907079
-0.12911935 -0.14105695 -0.6667306 0.2861277 0.20742875 0.2397939 0.2518727 0.2834853
0.17114156 0.14701805 0.052018847 0.04126323 -0.14581712 0.35550052 0.58540696 -0.12620081
-0.11957862 -0.24359693 -0.35685557 0.15529025 -0.06104327 -0.17256491 -0.27487043 -0.3499427
0.16889088 -0.30957013 -0.24998799 0.06529086 0.239303 -0.07892622 0.18797989 0.14945565
-0.5433116 -0.2775439 0.46391428 0.12978555 0.18946156 -0.16859028 0.14085382 -0.14731221
0.15043442 -0.098474964 -0.31681064 -0.18907844 -0.23770581 -0.43269196 -0.52396417 0.08480946
0.06606138 0.34075278 0.3655063 0.033636767 -0.16747256 0.10179983 -0.31913817 -0.17993887
-0.15876855 -0.093885615 -0.026145624 -0.26729718 -0.3347831 0.26242015 0.5686064 0.3882819
0.39950404 -0.5471468 -0.43614057 -0.058313146 -0.11955416 -0.118474476 0.1718151 -0.046098992
-0.35499763 0.1603598 -0.48488012 -0.6407207 -0.4405315 0.1946229 -0.31671515 -0.035913065
-0.092153676 0.4468546 -0.33450386 -0.11071858 -0.36111942 -0.2287798 0.04142922 0.41129678
-0.2805754 -0.30404204 -0.32804912 -0.19411185 0.17019488 0.1526281 0.3206971 0.12375695
0.010412321 -0.05063102 0.10757522 0.16259457 0.3465957 -0.322197 -0.18217707 0.18414095
0.061239388 0.08581504 -0.20019457 -0.2456108 -0.21186651 0.064309634 0.07143465 -0.15434475
-0.03415394 -0.11893375 -0.10373011 -0.24406183 -0.1788157 0.025491506 -0.003088802 -0.06115046
-0.008224368 0.020237923 -0.2717514 -0.030224651 -0.04543534 0.009501785 -0.26118788 0.08487665
-0.28667417 -0.2268731 -0.07973027 -0.21797284 0.1462745 0.083487056 0.4519446 0.08046802
-0.2789489 -0.047858845 0.24324083 0.39147207 -0.23870072 -0.09449513 -0.14462727 -0.21204004
0.36204717 -0.13889275 -0.24358061 -0.036774833 0.04994345 -0.15257412 -0.09848872 0.0017455807
0.13873562 0.33018875 0.1904344 0.34560323 -0.00069302425 -0.30279905 -0.24078992 0.25517216
0.01911935 -0.33182418 0.37415057 -0.41158518 0.018107828 -0.46807072 -0.16111635 0.017352656
-0.05672559 -0.22828627 -0.19601126 -0.2710875 0.3569625 0.28532246 -0.335748 -0.43693146
-0.584983 -0.008975824 0.07561405 0.06040195 -0.1775212 -0.2562258 -0.29110754 0.15992683
-0.1866467 0.19410299 -0.20188913 -0.2624487 -0.13883732 0.33511755 0.5887095 -0.014551866
-0.21324249 -0.07800838 -0.14080101 0.06195114 -0.18532689 -0.19918814 -0.23383094 -0.11205308
0.25011945 -0.22191454 -0.11668668 -0.19585498 -0.38219 -0.18269132 -0.04576562 -0.062967084
-0.1697226 0.0004558688 -0.3387881 -0.374036 0.28281438 -0.19497558 -0.122839645 -0.14543538
-0.18933164 0.36547574 0.38787195 0.38826418 0.37201858 0.19956751 -0.4147389 0.33655912

linear1.bias f4 [256]
00000000: 7233 25be 1db9 d1bd 3bd0 1a3e 0fbd d53d
00000010: fcac 3a3d 7b3d b4be 1dd6 99bd 4df7 e23e
00000020: 6ad6 2ebe 138a a63d ba21 b4be a542 7e3e
00000030: bd02 a1be 3cad 84be 7d48 89be 383b cbbe
00000040: c6a4 48be efab 5ebd 5cba 59be 1420 1a3d
00000050: f248 78bd f24f 5abe b771 4fbe 094a 203e
00000060: 0b5d a53e fae9 853e 7d57 933d b1ca 9f3e
00000070: 5f90 f3bc 9cb5 28bb ddad a43e 8bc3 89be
00000080: aed8 c83c 1fe1 41be a152 933e 145c 1abd
00000090: cd0a 3a3e e08c d23e 9947 a6bd bce0 d93b
000000a0: 3a52 04bd 3977 47be 679c f43e a6a1 573e
000000b0: aa70 323d 55c6 32bd 8bf1 243d 4892 d63c
000000c0: d267 d6bc a880 6f3e 42cc 7bbe 50a2 f33c
000000d0: 05e0 c9be 305c 34be cee4 fa3d 55d5 3abe
000000e0: 82d0 93be f38a d93d 1092 4dbe 010c 8dbe
000000f0: 770b b5be 136d 93bd fd7d 193e 8dab 43be
00000100: 1b62 09be c4db 083e 610b 863d d723 94be
00000110: bd41 373e aa26 233d ee61 13bd 5f8f 463e
00000120: 794e eabd c22a 9bbe d379 673a b8a0 c03d
00000130: b8cf 39be 2b05 293e 5f8c 63be d006 1dbe
00000140: ba37 003c a72b 683e 4de7 1f3e 875a 923b
00000150: 1a18 793d 1d20 52be e6a7 5b3b 52a3 89bd
00000160: 59e2 743e 3eba 13be f5e5 2abe de6e 2abe
00000170: 1dad 8bbe 78d0 b03e c601 9f3e d019 e13e
00000180: 7794 253d f6cc 7abe c71d 5e3e b2df 383b
00000190: b6dc 8b3d 043f 373d bdb9 5d3d 1359 6dbe
000001a0: 778b 013f b592 713d 76cd 96bd e0ca 28be
000001b0: 5f87 bbbe 6d9e 263d 71f3 e5be 0a4c a93e
000001c0: 56f2 3bbe a959 9ebe 224a 813c 72b1 9fbe
000001d0: 3899 b6bd efe4 133e 46b3 babd e2c4 c83e
000001e0: dece 073d 90fc 3c3c 9cf3 c6be 9df6 05be
000001f0: ea6e d43d 8ba5 0f3e 8448 b3be 8c20 acbe
00000200: ecbd bbbc ec43 85be 3ff4 39be 0b8f 89be
00000210: f2fa 98be 2852 e23c 1d1e 0abb 808f 75be
00000220: 2657 963d 0e6c 9e3d 4dce 6fbe 3444 183e
00000230: 9c62 c23d b836 743d 7e50 a4be 9613 00be
00000240: 2e9a 43bd ab42 23be 65fe 73bd bbec f1bc
00000250: 2ee2 843e c360 ed3d 5eea a83d 3dc1 41be
00000260: 24e4 a23e ef95 17be cc66 343e 612c d0bd
00000270: c939 083d bcca 153c 0453 85bd fe52 883e
00000280: 2125 d23e 1b7f acbe d701 b43e accc 78be
00000290: 9c70 a8bd bf46 a8be 9697 d6bd 01ba 2b3e
000002a0: 3c2c f93d 1efe 00bd 98a6 71be 3834 a6be
000002b0: d67c aabd 9ad8 44bd 9a88 83bd 562b bf3d
000002c0: 07f9 213d 8b52 10be 5e1e 7fbe 6718 683e
000002d0: 74e4 fe3e 287c a2be 488c 4dbe e373 2bbe
000002e0: fecf a23e c9bd 3dbe 2eb1 5c3e 365c ac3e
000002f0: 0904 8dbe b1e9 803e 4ea1 633d d405 6cbe
00000300: 20be 883d c1db 86be f5db ae3e 1149 0ebe
00000310: 198c ce3e e881 92be 6cad 053e edc0 983e
00000320: 8d9b c7be 184a 29be b939 acbc 7c90 9cbe
00000330: c5af 00be 5a92 cf3c d759 74be da27 dc3b
00000340: ac97 cb3e ea44 3a3e 7154 bebb e00a b53e
00000350: b47f 84bd 6339 043e f0d2 7b3e 0329 c9bd
00000360: a500 4b3c c06f 29be 6d2f a3be db14 4fbc
00000370: 91c9 1b3e d9e6 a6be 7688 0dbe e5f0 0dbe
00000380: 0c6e bebd f6d4 993c 1551 11be a07a acbe
00000390: 5c74 9ebb a98b 79be 2e95 65be 6cb1 0a3e
000003a0: ab47 e5be df51 65be 0aa0 ccbe 5e45 ed3d
000003b0: 2a4d 26be cff5 9fbe 4684 47be e2c3 df3d
000003c0: 05ea d53e 93f2 ef3d 1822 15be 3da3 8abe
000003d0: ea08 4ebe 1c6d 3dbe 72f5 abbd 6358 723e
000003e0: 69cc 943d 8d9d e23c fbec 0fbe e46d 86be
000003f0: 6bd8 96bd a1c7 1dbe 3051 b2be a883 183e
-0.16132906 -0.10240386 0.15118496 0.10436451 0.045575127 -0.35203156 -0.07511542 0.443293
-0.1707398 0.08131804 -0.3518198 0.2483011 -0.31447402 -0.25913417 -0.26813117 -0.39693618
-0.19594106 -0.054363187 -0.21262497 0.03762825 -0.06061644 -0.21319559 -0.20258223 0.15653242
0.3229755 0.26155072 0.071944214 0.3120933 -0.029731927 -0.0025743013 0.32163897 -0.26907
0.024517383 -0.18933533 0.28773978 -0.03768547 0.18168183 0.41123104 -0.08119125 0.006649105
-0.03230498 -0.19479074 0.47775576 0.21057758 0.043564476 -0.043646175 0.040269416 0.0261928
-0.026172552 0.23388922 -0.24589637 0.029740483 -0.39428726 -0.17613292 0.12250672 -0.18245442
-0.28870016 0.106222056 -0.2007525 -0.2754822 -0.3536031 -0.07198539 0.14989467 -0.1910841
-0.1341633 0.13365084 0.06545139 -0.28933594 0.17896171 0.039831795 -0.035982065 0.19390629
-0.11440749 -0.3030606 0.0008830104 0.09405655 -0.18145645 0.16505878 -0.22221516 -0.1533463
0.007825786 0.22672902 0.15615578 0.004466358 0.060814 -0.20520063 0.0033516823 -0.06720604
0.2391447 -0.14426515 -0.16689284 -0.16643855 -0.27280512 0.3453405 0.3105604 0.43965006
0.04042479 -0.24492249 0.21691047 0.0028209505 0.06829207 0.04473783 0.054132212 -0.2317851
0.5060343 0.0589778 -0.07363407 -0.1648364 -0.36626717 0.04067843 -0.44912294 0.33065826
-0.18354163 -0.3092778 0.01578242 -0.31190068 -0.08915943 0.144428 -0.09116225 0.3921271
0.03315627 0.011534825 -0.38857734 -0.13082357 0.10372718 0.14027993 -0.35016263 -0.3361858
-0.02291771 -0.26028383 -0.18159579 -0.26866946 -0.29878956 0.027627066 -0.0021075078 -0.23980522
0.07340841 0.077354535 -0.23418541 0.14869767 0.094914645 0.059622496 -0.3209266 -0.12507471
-0.04775446 -0.159434 -0.05956878 -0.029531827 0.2595381 0.115907215 0.08247827 -0.18921371
0.31814682 -0.14803289 0.17617339 -0.101647146 0.033258233 0.009142574 -0.065099746 0.26625818
0.41043952 -0.33690724 0.35157654 -0.24296826 -0.082246035 -0.32866475 -0.104781315 0.16770174
0.1216664 -0.031492345 -0.23598707 -0.32461715 -0.08324592 -0.04805813 -0.06422539 0.093344375
0.03954413 -0.14093988 -0.24913928 0.22665559 0.4978367 -0.3173535 -0.20073044 -0.16743426
0.3179931 -0.18529429 0.21551964 0.336641 -0.2754214 0.25178292 0.055573754 -0.23049098
0.066768885 -0.26339534 0.3415219 -0.1389506 0.4034126 -0.28614736 0.13054436 0.2983469
-0.38985863 -0.16532171 -0.021023618 -0.30578983 -0.12567051 0.02533834 -0.23862396 0.006718618
0.39764154 0.18190351 -0.005808406 0.3535986 -0.0646967 0.12912516 0.24592185 -0.098222755
0.01239029 -0.16546535 -0.3187212 -0.01263925 0.1521361 -0.32597998 -0.13821587 -0.13861425
-0.092983335 0.018778306 -0.14191087 -0.33687305 -0.0048356485 -0.24369682 -0.22420189 0.13544244
-0.4478124 -0.22394513 -0.3996585 0.11585496 -0.16240373 -0.31242225 -0.19484052 0.109260336
0.41780105 0.11716189 -0.14563787 -0.27077666 -0.20120588 -0.18498653 -0.08396424 0.2366653
0.07265551 0.027663017 -0.14055245 -0.26255715 -0.07365497 -0.15408184 -0.34827566 0.14893973

linear2.weight f4 [256, 256]
00000000: 7c25 f23c cdf5 33bc 7d5e 8ebd cead 9fbd
00000010: d9f5 73bd 3d90 d13d 5c59 9fbd f069 40bd
00000020: b55f a53d f93f 49bc fafe 8cbd cffa 71ba
00000030: 3da6 9a3c 90d9 103d d443 15bd e88b 2dbd
00000040: b694 b33b d9cc f1bd bc30 823d 42d2 663d
00000050: 1c7c 29bc 89c5 56bd a43a b7bd d4f7 8fbd
00000060: d4ad 083d d2f4 c63d b19c 8bbd 9274 98bd
00000070: 2b0d dc3c 668c a5bd 5554 d53c 0fdf 483d
00000080: abaa 16bc 4e19 79bd 3273 27bd 8a31 c93c
00000090: d95e 47bd 72a0 f1ba 2851 593d 8cf5 70bd
000000a0: 81a7 673c 6b3f d8bc 3817 b8bd 2d4a 9cbd
000000b0: dceb 533c 3763 27bd 0ba8 a4bc ebb8 0b3d
000000c0: ca34 b3bd 5a3c 353c 67d7 c4bd 6dd9 75bd
000000d0: 024e 5abd 1785 f0bb b566 03bd f541 14bd
000000e0: 8a94 11bd 5d04 e33b 00ac 49bd 28da 873d
000000f0: 90e1 98bd b376 ebbc 1757 e7bd 44bb 393d
00000100: b1ea 09bd 0276 2e3d 5bb0 d3bd 58d9 10bd
00000110: 5c27 933c 93cf 6ebc 00b1 993d efde d0bc
00000120: 8b5a 61bd 1f86 9bbc f6d8 84bd db56 6d3d
00000130: 9170 d03c e3d5 3739 12d4 a4bd 2936 abbd
00000140: 83c3 b03d 7034 92bc d3b6 a2bc 2d2c 323e
00000150: 5061 42bd 968d 4c3e 61dc 80bd 8bc3 1ebb
00000160: dcd4 7b3d a3da 67bd 0627 57bc 6ac1 fcbd
00000170: 3626 00bd 43d3 0fbd ad30 a33c 8727 11bd
00000180: 1f97 a33b 860a 59bd 2e52 6b3d 5278 97bd
00000190: f150 043d c2f3 ca3d be72 6b3d c2a8 85bd
000001a0: 3f08 8ebd 1250 b8bc 527f 433d a858 ec3d
000001b0: 5213 9dbd 6b2d 953d 0715 88bd 95c1 0c3d
000001c0: 4b41 d83d f87c c2bd 4eda 713c d054 24bc
000001d0: bf09 9c3b dc33 8ebd 2179 afbd e8d8 bf3d
000001e0: 1211 8abd c78e 9abd 2bec ea3b 1799 093e
000001f0: 280d 25bd a271 eebd 2c0c 243d 654d fcbc
00000200: 7698 a6bd bbfe c23c 6121 c23d 4bec 59bc
00000210: b69f 2abd 0eea 25bc 6487 9bbd 7142 86bd
00000220: 123d 003d 6a55 43bd d401 e0bc 38c5 bb3c
00000230: 90ea 923b 15e4 2ebd 6bfd b2bc 7258 c3bc
00000240: af8d b5bc f50c febc 4c1b e3bd 71ed b73c
00000250: 2f0e eabc 99fc 04bd 817e 983d 9f0d 2ebc
00000260: d9dd 083d c3b3 1cbd 9e3a 9ebc c31b 443c
00000270: af30 56bc 251e 94bd ed8a 64bd 2d09 833d
00000280: 3466 6fbc 44d2 96bc 5b70 3a3d 0f61 e6bc
00000290: b757 14bc ca8f 5a3d 2b12 9b3b 6ac4 77bb
000002a0: acba bdbd 74f4 0abc 4d32 0fbe 3258 c5bd
000002b0: 0500 23bc 8dcc 4cbb 7bcd 063d c2af 65bd
000002c0: d663 80bd 87e1 5dbd e502 813c c597 a13c
000002d0: 789c 8b3d c02d 4bbc 6bff 8abd 141b 4ebc
000002e0: 9b0c 0dbd 8a66 0cbe 8981 7a3d e617 a5b9
000002f0: 1ab7 d8bb b96c 05bc aa40 88bd e03e b7bc
00000300: 677c d1bc 7a74 96bd 1bbc e73d 0720 a7bd
00000310: d4dc eabd 5d95 fbbc 1676 9cbd 5d99 57bd
00000320: 7878 36bb 9154 a6bd 0616 473c 4046 223c
00000330: 2d3a ea3c 2db0 97bc e387 42bd e09b b5bd
00000340: 2fdb d2bc f2a1 aabd 8b58 eb3d cf83 443c
00000350: 10a4 093d 880e deba f938 acbc b704 50bc
00000360: 2bb5 17bd 4903 a6bd 7bc7 0f3d 4345 53bc
00000370: 1a26 163c a6f8 b6bc c041 853c 7f95 3c3d
00000380: 823b 05bd aee1 d93c b2ad 8bbc 81a5 493b
00000390: 9d19 443c fc2c 9bbc ab6f bebd a972 c8bd
000003a0: 1b88 28be e0e1 8ebb 3963 0fbd a625 bebc
000003b0: 077c 1dbd e14c 02bd 125a a33c fd74 94bd
000003c0: 46ce bcbd 0856 c4bb 7f3d 0e3c 100f c8bc
000003d0: 998c 5fbd 35df 0bbd 0644 25bc 415c 2ebd
000003e0: 4cc9 51bc 3447 0ebd 174e fb3c e867 4bbc
000003f0: 3c5a 363b 92b2 6f3d 0158 4fbd acbc f7bd
0.02955889 -0.010983896 -0.06951616 -0.077968225 -0.05956063 0.102325894 -0.07780716 -0.04697603
0.08074895 -0.012283319 -0.068845704 -0.0009230794 0.018878097 0.035363734 -0.03644164 -0.042369753
0.005480374 -0.1180665 0.063569516 0.05635286 -0.010344531 -0.052434478 -0.08946732 -0.07029691
0.0333689 0.097146645 -0.06816996 -0.07444109 0.026861748 -0.080834195 0.02604119 0.04904085
-0.009195964 -0.060815148 -0.040881343 0.024559755 -0.04867444 -0.0018434657 0.053055912 -0.05882792
0.014139057 -0.026397428 -0.089888036 -0.076313354 0.012934651 -0.040866103 -0.02009966 0.0341119
-0.08750303 0.011061752 -0.09611397 -0.060021807 -0.05329705 -0.0073400843 -0.03208037 -0.036195714
-0.03554205 0.0069280104 -0.049236298 0.06633407 -0.07464898 -0.028743124 -0.11295908 0.045344606
-0.033671085 0.04259301 -0.103363715 -0.035363525 0.017963104 -0.014575857 0.07504463 -0.025496928
-0.05501799 -0.018984852 -0.064866945 0.05794416 0.0254443 0.00017531919 -0.08048262 -0.083599396
0.08631041 -0.01784727 -0.019862568 0.17399664 -0.047456086 0.19975886 -0.06292034 -0.002422544
0.061482295 -0.056604993 -0.0131318625 -0.12341578 -0.03128644 -0.035113584 0.019920671 -0.035438087
0.0049923803 -0.05298855 0.05745142 -0.07395996 0.032303754 0.09909774 0.057482474 -0.065263286
-0.069351666 -0.022499118 0.047728844 0.11540347 -0.07669701 0.072840534 -0.06644636 0.0343643
0.10559329 -0.09496492 0.014761521 -0.0100299865 0.004761904 -0.06943485 -0.085680254 0.093675435
-0.06741537 -0.07546764 0.0071692667 0.13437305 -0.04029575 -0.116427675 0.04005067 -0.030798623
-0.08134548 0.023803106 0.09479023 -0.013300966 -0.04165622 -0.010126604 -0.07594183 -0.065556414
0.03130824 -0.04768888 -0.027344622 0.02292119 0.0044835284 -0.042697985 -0.021849355 -0.023845885
-0.022162287 -0.031012038 -0.11089191 0.022452088 -0.028571216 -0.03246746 0.07446004 -0.010623365
0.033414695 -0.03825737 -0.01931506 0.01196951 -0.0130731305 -0.07232312 -0.055796552 0.063982345
-0.0146117695 -0.01841081 0.045517307 -0.028122453 -0.009054116 0.053359784 0.0047323904 -0.003780628
-0.092641205 -0.008481134 -0.13984032 -0.096359625 -0.009948735 -0.0031249851 0.032910805 -0.05607582
-0.06269042 -0.054170158 0.01574845 0.01972569 0.068169534 -0.012401044 -0.06786998 -0.012579698
-0.03443585 -0.1371099 0.06115869 -0.00031489058 -0.0066136243 -0.008143597 -0.06652959 -0.022368848
-0.025572015 -0.07346435 0.11315175 -0.081604056 -0.11467901 -0.03071087 -0.076397106 -0.052636493
-0.00278428 -0.081215985 0.012151247 0.009904444 0.028592193 -0.018516624 -0.047492873 -0.088676214
-0.02573928 -0.0833167 0.114914976 0.011994316 0.033603728 -0.0016941587 -0.02102326 -0.012696437
-0.03703801 -0.08106095 0.03510235 -0.012894931 0.009164358 -0.022335362 0.016266704 0.046041008
-0.032527454 0.02659687 -0.017050598 0.0030768814 0.011968997 -0.018942349 -0.09298643 -0.09787495
-0.1645817 -0.0043604225 -0.035006735 -0.023211312 -0.03844836 -0.0318116 0.01994041 -0.07248876
-0.09219031 -0.005991701 0.008681654 -0.024421245 -0.054577444 -0.034148414 -0.010087019 -0.04256845
-0.012804341 -0.034735873 0.030676885 -0.01241491 0.002782478 0.058519907 -0.050621036 -0.12096533

linear2.bias f4 [256]
00000000: 3b25 f1bc 9e65 93bc d50f 21be 6d4b 86bd
00000010: a3d6 4bbd 199b 8fbd ad05 25bc 3162 2cbd
00000020: 29df 143e 53ff 723d e5d7 4a3d 541a c1bc
00000030: 3e50 9fbc c9b4 8e3c 0b20 b93e 1f44 2e3e
00000040: 1448 bebd fee4 ddbd 580f 07be a9b9 a13d
00000050: 71cc 5e3e 12bb 18bd 48ab 8fbd 6453 f7ba
00000060: 3dfb 01bc 63fe 9cbc c35e 25bd 84b3 5cbd
00000070: 9246 983a da88 1d3d 63f5 4dbd 3a57 97bd
00000080: aa4e 4e3e b3c7 b63c 4d1c 18bd 5051 40bd
00000090: e5e1 233d c2c3 edbd cf5d 343e 0ea5 04bd
000000a0: 938e d3bc bf76 2fbd b2fc 093d 88be 97bd
000000b0: 1957 953c ebc2 013d 2409 c9bd 71aa 83bc
000000c0: 6e6f 0a3e 417b 8fbd 1d25 6abd b54d c1bd
000000d0: cfa1 47bd ce50 a8bd 4c26 17bd bf5c f83b
000000e0: 93ce c7bb f2c1 853b a9f0 a1bd e94f d5bc
000000f0: cbd5 2ebd 9ce6 543e 0cb4 063c 8942 c83c
00000100: 8cf5 1c3e 7c40 2cbd 1a78 84bd 5414 113c
00000110: ff43 b0bd 8081 cf3a 6085 01bd 168f 563d
00000120: 1ff2 75bd f147 32bd fbb1 50bd c729 a33c
00000130: e2ce debd d6b5 bdbd 35a0 9e3e 6d9b 503d
00000140: 19e4 383c 48b7 8039 d2a1 35bd b6c5 843e
00000150: 1b30 293e 1e98 0f3e ce06 6fbd f5a4 65bd
00000160: 6fb1 08bd 502f b9bd 11c3 fd3c 37b6 71bd
00000170: 1169 3a3d a740 11bd a758 77bd 4c24 953e
00000180: 2f19 ea3d 4c7c b6bd 11b0 cebd a4aa 8abd
00000190: aaef 883d 6cec 15bc 31eb 6dbc e7fd babd
000001a0: 807f d5bc 07d0 51bd cbdf 1e3e 5f6d 943c
000001b0: 63d1 d33e fd7c bc3b 4cb5 653e 1329 c3bd
000001c0: e298 93bd d4d1 a8bc 8715 a6bd 8033 bbbd
000001d0: bb84 283e 14fe b83b bb75 d4bc 687d 333d
000001e0: 8905 77bd 8af3 f2bc 70c4 81bd 2acd 263b
000001f0: b976 7fbd 50e5 923d 831c a63e 67c2 cfbd
00000200: 96ee 953b 48ad acbd e21a b43e cc44 e2bb
00000210: 39de 573e 9ab6 aebc 36ce 393e 27ae 923c
00000220: 5cf4 60bd be6c 78bd d62b fabc f70d 08be
00000230: b5bb a4bd 1b95 abbd 55c5 8e3e 4ed2 6fbd
00000240: bf9b f4bd 2035 97bd 7cab 91bd 9f33 b3bc
00000250: 36f5 7cbd 38a9 c3bd 2fe2 273c e4d4 3fbd
00000260: eaea 3fbd f9ce 20bd 71e2 a23c 8112 373e
00000270: a129 d6bb 6402 94bc 9ebd c03d 3936 093e
00000280: cddf 7cbc c05d 8c3e 0657 d1bd 6b0e 3e3e
00000290: f7d5 b9bc bc25 93bc ff21 80bc bd14 d63d
000002a0: d8f1 a13e 62c4 03bd 7a4e 1dbd 5982 1b3e
000002b0: e3ab bf3c a506 dfbd 80e7 1f3c 59af ffbc
000002c0: 0496 a1bd 9e1a 7a3c f47f 1cbc 9bd8 70bd
000002d0: c9a8 8fbd 8cf1 6a3e 96c4 a93d 098c 86bd
000002e0: 2048 0dbd 3e7b af3c 93f6 d1bd e7d2 57bd
000002f0: 8b08 0fbd 982b 74bd 2639 90bd e3e9 97bd
00000300: a4d8 adbd 3ef9 e3bc 4939 02be c02e a5bd
00000310: 4596 e9bd 7fa1 fcbc 652a 7a3c aaa3 b3bd
00000320: 1045 b3bc 3a2c a0bd 2782 90bd f011 87bc
00000330: 1f5d 07bd 5c89 80bd 68cd 72bd 947f 843e
00000340: bb51 19bd 97a8 a7bd 3138 153e 7880 b2bd
00000350: cb00 dbbd ea1d 9ebd 687f 1abe 5235 7abd
00000360: 0115 c5bd d739 d83c 61c0 11bd 55f6 bb3d
00000370: 805d 943e 449a 5bbd e9a1 b8bd b274 923c
00000380: adf0 0bbd 5c2b 933c 742c 4c3c b0f7 ccbc
00000390: dfc0 413e f04c 19bd 299c 8bbc 07c9 60bd
000003a0: d031 593e 657e 43bd bc40 44bd f4f9 24be
000003b0: e3df b2bc d426 6b3e 7476 8ebd 088e 943e
000003c0: b727 82bd 7604 77bc f1a1 1c3e cab5 94bd
000003d0: 84d3 953e e75b aabd fe6f 99bd bb77 483e
000003e0: 6773 4dbd d9cd 9cbc 73c6 6cbc 1ccf bebb
000003f0: 3605 493e dcb0 0fbe 3332 f5bd 257f 2d3d
-0.029436698 -0.01799279 -0.15728696 -0.06557355 -0.04976524 -0.070120044 -0.010072154 -0.04208583
0.14538254 0.059325527 0.0495223 -0.023572125 -0.019447442 0.01742019 0.3615726 0.17018174
-0.092910916 -0.108346924 -0.13189447 0.0789674 0.21757676 -0.03728778 -0.07015091 -0.0018869457
-0.007933435 -0.01916427 -0.040373575 -0.053882137 0.0011617711 0.03846059 -0.050282847 -0.07389684
0.20147195 0.02231202 -0.037136365 -0.046952546 0.04001035 -0.116096035 0.1761391 -0.03238397
-0.02582482 -0.042837854 0.033688255 -0.07409388 0.018230008 0.03168003 -0.098161966 -0.016072484
0.1351907 -0.07005931 -0.0571643 -0.094386496 -0.048738297 -0.08218537 -0.036901757 0.0075794156
-0.0060976236 0.004081958 -0.079072304 -0.02603908 -0.042684358 0.20791095 0.008221637 0.024445789
0.15328044 -0.042053685 -0.0646822 0.008854944 -0.08606719 0.0015831441 -0.031621337 0.05238255
-0.060045358 -0.04352564 -0.050950985 0.019917382 -0.108793035 -0.09263198 0.30981603 0.050929476
0.0112848515 0.00024550618 -0.044343777 0.2593209 0.16522257 0.14022872 -0.0583561 -0.05606552
-0.03337234 -0.09042227 0.030976804 -0.059011664 0.045510355 -0.035462048 -0.06038728 0.29129255
0.11430585 -0.089104265 -0.10092176 -0.06770828 0.06686337 -0.009150606 -0.014521406 -0.09130459
-0.026061773 -0.05122378 0.15515058 0.018118558 0.41370687 0.0057522045 0.2243244 -0.09529319
-0.072068945 -0.020607866 -0.08109575 -0.09140682 0.16456883 0.005645523 -0.025935045 0.04382077
-0.060308013 -0.029657144 -0.063362956 0.0025451877 -0.062369082 0.07172644 0.32443628 -0.10144501
0.004575561 -0.08431488 0.3517676 -0.006905174 0.21080865 -0.021327306 0.1814507 0.017905308
-0.05492054 -0.06065058 -0.03053848 -0.13286577 -0.08043615 -0.08378049 0.27884927 -0.05855017
-0.11943769 -0.0738318 -0.07112786 -0.0218752 -0.06175729 -0.0955376 0.010246797 -0.046833888
-0.04685489 -0.039259885 0.019883366 0.17878152 -0.0065357243 -0.018067546 0.094111666 0.1339959
-0.015434218 0.27415276 -0.102216765 0.18560188 -0.022685034 -0.01796233 -0.01564121 0.10453174
0.31629825 -0.032169707 -0.03840492 0.15186442 0.023397392 -0.10889939 0.009759784 -0.031211542
-0.07889941 0.015265135 -0.009551991 -0.05880032 -0.07014615 0.22943705 0.08289449 -0.06569678
-0.034492612 0.021421071 -0.102521084 -0.052691367 -0.034920257 -0.059611887 -0.0704215 -0.07417657
-0.084885865 -0.027828809 -0.12717165 -0.080655575 -0.11405615 -0.030838726 0.015268897 -0.08771451
-0.021883518 -0.078209355 -0.070560746 -0.016488045 -0.03304779 -0.06276199 -0.059277922 0.25878584
-0.03743146 -0.08186453 0.14572217 -0.0871591 -0.106935106 -0.077205494 -0.15087664 -0.061086006
-0.09623147 0.026394768 -0.035583857 0.091778435 0.28977585 -0.053613916 -0.09015257 0.01787791
-0.034165073 0.017965011 0.01246177 -0.02502045 0.1892123 -0.03742689 -0.017042236 -0.054879215
0.21210408 -0.04772796 -0.047913298 -0.16110975 -0.021835273 0.2296403 -0.06956187 0.2901461
-0.06355231 -0.015076747 0.1529615 -0.07261236 0.29262936 -0.0831831 -0.07492064 0.19576924
-0.050158884 -0.019141125 -0.014451611 -0.005823029 0.19630894 -0.1403231 -0.11972465 0.042357583

stream1.weight f4 [1, 256]
00000000: e948 9ebc a8c1 66bc 3b76 7dbc 2796 00bd
00000010: 7d25 c0bc 15a7 98bc 4ba0 c33c 52bb 1ebd
00000020: 3439 16be 6ea9 c23d 550f 63bd bf12 89be
00000030: 3f18 a33c 9325 4bbd a231 b33e 8b61 c73d
00000040: 5a82 7bbc 7576 ddba 1587 1dbd a63c 263d
00000050: 9348 673e 55eb 7d3b c5c6 78bc 84ef 37bd
00000060: 4b10 233b aedd 45bb 5613 2abd ace1 68bc
00000070: 1f0c 863d cff4 9abd e916 20be fad7 d4bc
00000080: aae5 133e 604b 093d 43aa 143d d190 4ebd
00000090: b93f 19bc d4a3 83bd ee77 d83d 65a0 dfbc
000000a0: c742 193d 5857 ce3d 4b29 913d be47 f2bb
000000b0: 4404 90bc 3c7c 663d 7e3f ae3d 883c 043c
000000c0: d13e c53b ab32 5abd a746 25bd 4070 edbd
000000d0: 4ebc fdbd f69c ce3b 2bc9 2abc 5729 eebc
000000e0: 2baa 6fbe 37f2 1abd 96ef 5abd 8083 843c
000000f0: f6ea bbbb 0614 9cbe 5bc7 41bd 148c 4b3d
00000100: 01ae 96be ecdb 093d c2dc 973c 2e3c babc
00000110: 1d2c 8a3d 7af7 ec3c 4f6a 4cba 5068 29be
00000120: cda9 11bd 50a6 5f3c 0a06 a13c 5ce5 0bbd
00000130: 0037 25bc 5074 723d b9b4 833e 32bf c4bd
00000140: 3127 56bd cd83 b7bc 07ed a5bc 6880 38be
00000150: 52d8 823d 0705 98be b7dc 123b 434d 0a3d
00000160: d305 78bd 4be9 24bd 8383 5a3b 6f88 e2bc
00000170: f1e9 77be 2fa0 fc3c a2d2 efbc 57b5 803e
00000180: 5374 97be be82 0fbc 0448 15bc f39a 863c
00000190: 7899 c13d e3c2 05bd 0df4 20bd e158 943c
000001a0: 2399 97bc b4a8 28bc 842f 9abd 8cdf 64be
000001b0: 9423 35be 6f3d 4bbd 45ea 8f3e f0f3 2c3d
000001c0: 6859 573d d5bc ca3c 5410 0cbd b223 7e3c
000001d0: a791 8ebe 5a2d 6c3d 15e5 38bb d910 2bbe
000001e0: 5064 80bc 18a9 d3bc 3b9e 57bd ad57 a6ba
000001f0: 5096 55bc 4a14 9a3c 4fd1 9f3e 1f59 96bc
00000200: 8b9e e3bc 5809 6ebc 542e 2c3e 8b64 27bc
00000210: ed6a 1f3e 99e2 aebe d58a 80be d216 de3b
00000220: 4bbf c9bc a5c8 25bc 6571 573d a451 d4bd
00000230: 3b19 c6bc 2222 5dbc de73 a73e 85e6 8c3c
00000240: d913 bbbc 3797 0d3d 9d9e 263b cd8f 86bb
00000250: 8a67 70bd 4780 26bc eb59 4b3c 97f5 fbbc
00000260: a442 f7bb e2a9 9bbe 225a 6ebc cfac ef3d
00000270: dd54 d93c 799f e6bc d0c8 39be fd1c 90be
00000280: 1131 903c 5d32 6c3e 149e 0ebe dba6 693e
00000290: 0690 77bc 3ecf 3e3d d0b5 40bd a8f3 f73d
000002a0: ab9b 913e 4b7e a13c 9160 2c3d 82bc 64be
000002b0: 611c 173d dcb8 fb3a 061e 27bd 0c00 a93b
000002c0: 0c27 26be cee7 27be 3039 ac3b 58dc b3bc
000002d0: 8e39 1dbe 4a39 62bd 9499 dc3d 378d dd3c
000002e0: f3ba c13c 2dd0 87bc 54b4 ce3c 4cfa 453d
000002f0: 858a 27be 1e38 653c 403e 063d 81b5 b9bb
00000300: a9ac ed3c dd0b a1bc af75 a4bd 51c0 8a3c
00000310: e60d 27bd c76a 31bd 2681 07bd 998c 53bd
00000320: 9177 543a b08d 953c 1344 7a3c aa07 24bc
00000330: 4278 313d f607 91be 622a fd3b c807 b83d
00000340: 3421 0d3d c756 9e3a 3bfa 0f3e ad86 ebbc
00000350: 7e5b cebc 879e 233d b1e7 c1bc 9590 853d
00000360: 948d 87bc d434 13bc 1c81 3e3d 8a49 84be
00000370: 8adb 613e 2249 88bd 66ef 953d 9402 e5bc
00000380: 24cc 32bd 125c ef3c c9a5 343b 68c2 23bd
00000390: a077 a63d 749c acbd 16d7 63bb 3b81 883c
000003a0: e054 263e 58f3 09bd 6f56 f83b 9227 38bd
000003b0: 70ab bc3d cbf2 e93d a4fc c8bd 1538 cabd
000003c0: dcd5 c0be 919e a7bc 0394 253e 9700 9fba
000003d0: 1cd6 5d3e 65fe 853c 0a18 3ebc 9f1f 5bbd
000003e0: 7524 fdbc fe91 3c3d b9f2 cabc ea6c db3b
000003f0: e298 34bd a907 80be 7f80 9d3b 7c4a 0abd
-0.019321876 -0.014084257 -0.015470083 -0.031393196 -0.023455376 -0.018634358 0.023880145 -0.03875286
-0.14670259 0.095049724 -0.055434544 -0.26772115 0.019909022 -0.04959638 0.34998804 0.09735402
-0.015350902 -0.0016896265 -0.038458902 0.040585183 0.22586279 0.0038745005 -0.015184109 -0.044906154
0.0024881538 -0.0030191946 -0.041522346 -0.014213961 0.06545281 -0.07566225 -0.1563374 -0.025981892
0.14443079 0.03351915 0.036295187 -0.050431076 -0.009353572 -0.06427732 0.1056975 -0.027298162
0.0374172 0.10075253 0.07087954 -0.0073938062 -0.017580159 0.056270823 0.08508204 0.008071072
0.006019451 -0.053270977 -0.040350582 -0.115936756 -0.12389432 0.0063053323 -0.010423939 -0.029072447
-0.23404758 -0.03782865 -0.053451143 0.016175985 -0.0057347966 -0.30484027 -0.04730926 0.049694136
-0.2942963 0.033657 0.018537883 -0.022733774 0.06746695 0.0289266 -0.00077978236 -0.16543698
-0.035562325 0.013650492 0.0196562 -0.03415428 -0.010083914 0.059192955 0.25723818 -0.0960678
-0.05228347 -0.022401715 -0.020254625 -0.18017733 0.06388916 -0.29691336 0.0022409388 0.03376509
-0.06055243 -0.040261548 0.0033342547 -0.027652947 -0.24210335 0.0308381 -0.029275242 0.2513835
-0.29580936 -0.008759199 -0.009111408 0.016431307 0.094531 -0.03265656 -0.039295245 0.018108787
-0.018505638 -0.010294128 -0.07528594 -0.22350901 -0.17689353 -0.049619135 0.2810842 0.042224824
0.0525755 0.024748245 -0.03419526 0.01551144 -0.278455 0.057660438 -0.0028212715 -0.16705646
-0.015672833 -0.025837466 -0.052641135 -0.0012690924 -0.013036326 0.018808503 0.31214377 -0.018353043
-0.02778556 -0.014528595 0.16814548 -0.010216842 0.15568133 -0.34157255 -0.2510592 0.0067776227
-0.024627348 -0.010118638 0.052598376 -0.10367134 -0.024181953 -0.013496907 0.32705587 0.017199764
-0.022836613 0.034568038 0.002542413 -0.004106498 -0.058692493 -0.01016242 0.012411575 -0.030756755
-0.007545786 -0.30403048 -0.0145478565 0.117028825 0.026529724 -0.028152214 -0.1814301 -0.28147116
0.017601522 0.23066087 -0.1392749 0.22817557 -0.015110021 0.04658436 -0.04704839 0.121070206
0.28439078 0.019713541 0.04208428 -0.22337535 0.0368923 0.0019204873 -0.040800117 0.0051574763
-0.16225833 -0.1639702 0.0052558407 -0.021955654 -0.15353987 -0.055230416 0.1077148 0.027044876
0.023648715 -0.016578758 0.025232472 0.048334405 -0.16361435 0.01399043 0.03277421 -0.005667389
0.029012995 -0.019658977 -0.08030259 0.016937407 -0.04078474 -0.04331472 -0.03308215 -0.051647756
0.0008104975 0.018256038 0.015275019 -0.010011593 0.043327577 -0.28326386 0.0077259997 0.08985859
0.034455493 0.0012080305 0.14060299 -0.028750742 -0.025190111 0.039946105 -0.02367005 0.065217175
-0.016547002 -0.008984763 0.046509847 -0.25837356 0.22056404 -0.06654574 0.07321052 -0.02795533
-0.043651715 0.029218707 0.0027564636 -0.039980322 0.081282854 -0.084282786 -0.0034765652 0.016663184
0.16243315 -0.033679336 0.007578663 -0.044959612 0.092123866 0.11423262 -0.098138124 -0.09873978
-0.37663162 -0.020461353 0.16169743 -0.0012130913 0.21663707 0.016356656 -0.011602411 -0.053496953
-0.030901173 0.046037666 -0.024773942 0.006696333 -0.044091113 -0.25005844 0.0048065777 -0.03376244

stream2.weight f4 [3, 256]
00000000: 68c0 1f3c 036a f8bc 46b7 5b3d 0ad1 993c
00000010: b137 033d bec6 113c 4c1b d1bc f8f2 e4bc
00000020: abd7 553e af92 02bf 72bb 873c fb0f 7abe
00000030: 8918 ccbc 0c30 bbbc c414 a33d 8526 2ebd
00000040: 7e54 f33c 6b98 123b f2f6 fc3d a58b e2bd
00000050: 3c68 c4bd 9066 303d 23c3 893c 6d4a 0dbd
00000060: 3f97 95bc d509 1ebd 9ec7 4a3d 81fc 0e3e
00000070: 991c 9cbd a75d 3f3e eb25 4f3d 5b66 5d3c
00000080: 454f 6d3d 5773 f73c af91 f5bc 85b7 e3bd
00000090: 2622 5dbd 9b3d 1bbe 4ecd e43c e2f1 79be
000000a0: 64d0 5f3c b30c 87bd a202 0abe 0dce 83bd
000000b0: 4ef5 c93c fcd5 2fbc 2293 a33d 4d4a 18bc
000000c0: 0df7 863e ce26 b33b 7ed3 173c c9f9 0cbe
000000d0: 828f 94bb 4143 0ebd e268 3bbd 7a83 ecbc
000000e0: 5f82 df3d 6ce8 383c a0c4 2dbd b960 c7bb
000000f0: da6c fe3b 64ed a8be 1488 133d cd1c 44bd
00000100: cf26 abbe dac9 8dbe 72fe ca3d 6105 28be
00000110: 9c98 a63d 84cc bf3c 440a c2bc 1bf6 463e
00000120: 3c5b 6ebc 8067 513b b8e1 35bd 0bdb 01bd
00000130: 8296 e43c f560 96bd cbb5 7d3e 2cc3 203e
00000140: e734 00bd 88db 8cbd 978b a63d 3655 c23e
00000150: 4767 ebbd 01df a7be fbc9 08bd 0698 ce3c
00000160: fe33 8eba 0ced cc3c e94e 31bd 5e82 e63c
00000170: 9ed3 94be 5298 843c a929 173d 7f73 09be
00000180: be19 b1be 4d22 c5bb 961f 4f3d 97a5 093c
00000190: eb03 8a3d 8b58 17bb 33b5 a83c 35bf 53bd
000001a0: f3d4 9e3c 20d1 443d b307 283e e7c3 9bbe
000001b0: cb47 d63e 210e 42bc c413 9ebb 4146 fe3d
000001c0: ddb2 d2bc 0104 c0bb 2c3d 663c 1edc a1bb
000001d0: de9f b8be 8c57 563b 51e8 65bd 84cf 493e
000001e0: 13d4 7b3d 2272 4ebc 11f4 c53d 6748 0f3c
000001f0: 5a2a 4cbc 94c4 ecbd c7d4 0dbd d744 a2bb
00000200: 73e4 e73b a56e 5dbd a326 913e 1375 263d
00000210: 7595 0dbd af14 683e 5a57 ab3e e447 d5bc
00000220: 2cb3 f5bb fcf5 1cbd 5bd5 f43b 7815 3a3d
00000230: cc7f 8ebc 401c 3cbc 4be4 bc3c db3a 2bbc
00000240: a89e 5fbc 52c0 d2bc 9662 2dbc 8386 c9bc
00000250: b795 26bc 1c9c 10be ccd7 f9ba de73 dabd
00000260: e50d 883c 1d8a 45be d258 be3c 88f1 01be
00000270: a2ad edbc 0038 423d e7cb 3c3e 315c a8be
00000280: 3b97 d2b9 968f 82bb 80ca af3d 8f0c f9bd
00000290: 7e78 863c 17c3 bfbc 91b3 c23c 30a2 0abe
000002a0: 5e25 6fbc 1e00 133c 5b6a 243d 9a9e 893e
000002b0: f57e 8abd 95d6 1d3c 0c29 efbd 2b56 a13b
000002c0: e328 e93d 6fbb 3c3d 08ac 3cbd 7fb9 353d
000002d0: caf4 033e ff66 d53e 3053 9cbd b048 db3c
000002e0: 3c3a 183d 64ae da3a ec0c 8b3c be84 203e
000002f0: d3f2 28be e337 5f3d bb74 023d 3c82 0c3d
00000300: b58a 1d3d 1d12 83bc 15ca c0bc f074 d73b
00000310: 649a c43d 784c 1ebd 9f16 023d 8f14 5bbc
00000320: edf5 133d 6adf 3abb 9a66 843c c7b0 d93a
00000330: 4cd2 edbc d68c e53d 44f5 a03c ce9e 333e
00000340: 03d7 39bd b05e 12bd fa58 b83c afeb 973d
00000350: e46b 763c a0ea 013d 10e6 493d c8e2 933c
00000360: fa2d 63bc 040f a1bd 4e17 b1bd 63e6 80be
00000370: cdee 7a3e 4dae c03b 1754 f7bc ec71 ac3c
00000380: 4e6f 84bc d70a ac3e 6e62 5b3b 6bb6 333d
00000390: 9099 61bd c64b 73bb 660d 323b 4e7e 363d
000003a0: 70c5 963d a274 c13c 8cca 98bc 492e 0f3e
000003b0: f113 82be 6754 fc3d 1029 753d 28ef ab3e
000003c0: 9b27 473d 5cad 1dbe 59d0 f33d 8598 7bbd
000003d0: e461 3d3e 812f 94bd b0ec b7bb ceb4 7a3e
000003e0: d372 c1bc 97f4 4cbd bcec f2bc 9061 4bbc
000003f0: aa69 323e e542 133e 210e 10bd f35d 4bbd
0.009750463 -0.030323988 0.05364158 0.018776435 0.032035533 0.0088974815 -0.025525711 -0.027947888
0.20883052 -0.5100507 0.016568873 -0.24420159 -0.024914043 -0.022850059 0.07962945 -0.042517204
0.029703375 0.002236868 0.123517886 -0.11061791 -0.09590194 0.04306656 0.016816681 -0.034494806
-0.018260596 -0.038583595 0.049506776 0.1396351 -0.07622642 0.1868807 0.05057327 0.013513173
0.057936925 0.030206366 -0.029976694 -0.11118988 -0.053987645 -0.1516022 0.027929928 -0.24408677
0.013660524 -0.06594219 -0.13477567 -0.064357854 0.024653103 -0.01073217 0.07987048 -0.009295058
0.2636036 0.0054672724 0.009266732 -0.1376716 -0.004533709 -0.034732107 -0.04575432 -0.028871287
0.10913538 0.011285882 -0.042423844 -0.0060845283 0.007764441 -0.32993615 0.036018446 -0.04787903
-0.33428046 -0.27693063 0.09911813 -0.16408302 0.08134577 0.02341295 -0.023686536 0.1942982
-0.014548119 0.003195256 -0.044404715 -0.031703036 0.027903799 -0.07342712 0.2477638 0.15699452
-0.03130045 -0.0687781 0.081320934 0.37955636 -0.11494308 -0.32787326 -0.03339575 0.025218975
-0.0010849235 0.025015377 -0.043288145 0.028138336 -0.290677 0.016185913 0.036904965 -0.13422965
-0.34589952 -0.006016052 0.050567232 0.008401296 0.067390285 -0.0023093547 0.020594215 -0.05169602
0.019388651 0.048051 0.16409187 -0.304229 0.4185165 -0.011844189 -0.0048241336 0.124157436
-0.025720054 -0.0058598523 0.01405267 -0.00493957 -0.3605947 0.003270599 -0.056129757 0.19708067
0.061481547 -0.012600454 0.096656926 0.008745289 -0.012461269 -0.11560932 -0.03462675 -0.004952054
0.007076794 -0.054060597 0.2834979 0.040638994 -0.03456636 0.2266414 0.3346508 -0.026035257
-0.0074981656 -0.038320526 0.007471723 0.04543063 -0.017394923 -0.011481345 0.023058077 -0.010451044
-0.013648666 -0.025726471 -0.010582587 -0.024600273 -0.010167531 -0.14122051 -0.0019061505 -0.10666631
0.016608188 -0.19290967 0.023235712 -0.12689793 -0.029013459 0.047416687 0.18437158 -0.32882836
-0.00040166997 -0.003984402 0.08583546 -0.121605985 0.016414877 -0.023408456 0.023767265 -0.13538432
-0.014596311 0.008972196 0.04014049 0.26878816 -0.067624964 0.00963368 -0.11677751 0.004923602
0.11384752 0.046077188 -0.0460625 0.044366356 0.12886348 0.41680142 -0.07633054 0.026768059
0.03716491 0.0016684053 0.016973935 0.15675637 -0.1649888 0.054496657 0.031849604 0.03430389
0.03846236 -0.015999848 -0.02353386 0.0065752193 0.0959976 -0.038647145 0.031759854 -0.013371601
0.036123205 -0.0028514513 0.016162205 0.001660847 -0.029030941 0.11208503 0.019648202 0.17541048
-0.045371067 -0.035734832 0.022503365 0.07418 0.015040372 0.031717896 0.04929167 0.018052474
-0.013865942 -0.07864192 -0.08647023 -0.2517577 0.24505158 0.0058801533 -0.030191464 0.021050416
-0.016166355 0.3360202 0.0033475417 0.04387514 -0.05507809 -0.0037124022 0.002716863 0.044554047
0.07361877 0.023615185 -0.01865127 0.139825 -0.2540584 0.12320786 0.059853613 0.335809
0.048621755 -0.15398163 0.119049735 -0.06142475 0.18494374 -0.07235623 -0.005612932 0.24483034
-0.023614323 -0.050037947 -0.0296539 -0.012413397 0.1742312 0.14380987 -0.035169724 -0.049650144

stream2.bias f4 [3]
00000000: bd5c 073e b981 43be 7a62 393d
0.1321897 -0.19092454 0.04525993
