snake_game/snake/rl/model.pth (torch, 78897 bytes, 7 tensors)

linear1.weight f4 [128, 14]
00000000: c420 a7be afd6 a33e ae42 51bd 2810 9dbd
00000010: 6a3b 0fbf b6b5 1a3d 0408 29bf 6679 56bd
00000020: a7f6 c3be 1936 33bf 300c d0bd 0187 89be
00000030: 35f5 763d aa86 883c bfe7 04be bbad 763e
00000040: 2083 f63e b23e 25bf 9385 133f 9a7d a23f
00000050: 0d83 74bf 70cf 82bf 35e7 ce3d 2852 b0bf
00000060: 196c 403f ce15 d13d 220c 2d3e c078 1a3f
00000070: 66eb 3fbf 9f2e 18bf 6b5a be3f fa53 103f
00000080: f372 123f 3a17 f93e edee 353f b17f 3e3f
00000090: ccbd 5a3f 3088 8c3f 0fc8 8d3f f00e 893e
000000a0: 9670 aa3e 986e d83e 527f cebe 1d24 e63d
000000b0: 67bb aa3c dbd7 c4bc 2a6e 983e 0ac9 ed3d
000000c0: a310 cc3c 5b03 03bd 1194 12bd 64d4 bbbe
000000d0: 13e2 b7bd 4871 30be 6040 6fbe 0015 1cbf
000000e0: 4862 e93e d319 76bf 3717 a73e 7df3 353e
000000f0: f996 44bf 85b6 04bf 2ae1 953f d175 703f
00000100: 6f8d 0ebf 52a9 1d3f 4d47 a6be 7573 2fbe
00000110: e092 13bf 68b0 803f 0c4d 67be 8058 94bd
00000120: 5332 8a3e 5e7f f2be d1ec 1bbf 9084 353e
00000130: 0651 25bf 1b7a 21bf b42d a5bd 70c7 7ebf
00000140: 836f 85bf 4584 65be 93b1 48bf b187 81be
00000150: 8f41 403e fab0 323e 80f6 debd 4096 f5bd
00000160: 28f7 2f3e 050c c2bd b6ea 48be 0944 29be
00000170: 5620 02bd 76b3 a9be 745d f4bd c7bd 83be
00000180: 34df ea3d eee5 cfbe 841b ff3e f029 643f
00000190: a4f6 9abf eea2 223f 468c eb3e 1d9d 243f
000001a0: 2874 713e 2d3a 6a3f 6247 933e 04ab 043f
000001b0: c6b6 0f3f 40be 07bf 21f8 1b3f d8bd 9ebf
000001c0: e49d 6e3c 3e6c 27be ca8a 94be 308f fb3d
000001d0: 9b50 223e ea89 9ebd 0bf8 c4bd ed65 a4bd
000001e0: 467f 7cbd 37c4 b3bd fccc bcbe d758 e53d
000001f0: c21d 223d f626 ce3d 9ad3 ee3f c349 bc3d
00000200: 8df4 903f 85eb 17bf f772 1dbf 496d debe
00000210: 2ac4 1fbf effb 18bf 110a 1dbf 75de d5be
00000220: 2582 c5be 3241 d5bf 8ae2 f0be ad1e 12bf
00000230: 35a8 59bf 12c2 6d3f a4d3 debe eae7 04bf
00000240: c3ab 6abf 1723 15bf 3e75 ecbe e0a7 99bf
00000250: f37f 49bf cb1b 67bf 5f1f 39bf 0ea1 73bf
00000260: 6d1f babd f1df 00bf 700f 2ebe 35e9 4e3d
00000270: d0e6 0f3f 8d27 373f 3952 2d3f d680 80be
00000280: 257b a43e 5ef1 1bbf 9fa2 d1be 7fa1 72bc
00000290: 2ff0 483e bcbf 73bf 679e 5b3e a3ea 3f3f
000002a0: 1b6d f83f 9dd8 e9be 285e 1cbe 074f 6a3f
000002b0: d2c6 5c3e 9b9a 243f 3ff7 c73e b213 1a3f
000002c0: bbd9 8c3f a232 e23e a38d 283f c1c5 c03d
000002d0: ddf0 5d3f ca26 ec3e 6d33 b93e 6269 ab3f
000002e0: 9698 2a3f 4a7b 63bf 0cef 5cbf e9a4 84bf
000002f0: ca80 2abf e1c3 733e e017 78bd 1543 223e
00000300: 5f71 c0be e6dc 54bf 7217 7bbf 73bd 87bf
00000310: fb75 1b3e 5c78 243f 50da ccbd fdcd 353f
00000320: c3bd f43c 5b34 603f f925 e03c 4eb9 333f
00000330: a0b8 8c3e 16e6 963e f489 cebe 6bc3 b2be
00000340: eb70 d03e 9b89 263f 684b 40bf 35a3 34be
00000350: 0ebb bfbe 5255 2d3e 48ab 133e 83b4 45bf
00000360: 9067 a6bd b6b4 98bf e6d1 abbf 56d4 aebe
00000370: 9d92 aebe bcf8 11bf c0af 003f 4063 51bf
00000380: cc4a 663f ac48 1cbf e39d 353f 7942 043e
00000390: d1a8 be3c c1c6 55bf b54f 093f 5c37 163e
000003a0: a46d e83d a3a9 c5bf 4d19 0dbe 8670 b0bf
000003b0: 3905 0dbf 76c4 86be 5891 073f ae68 1b3f
000003c0: c68a 04bc 9b2b 573f 53a6 183f 60f7 63be
000003d0: 4d82 6fbf b144 24be 5e15 5fbe 4020 bc3d
000003e0: 19a3 4e3f ad09 c9be bc6a a0bd ddab fa3e
000003f0: 4510 823e e2e6 983e 6238 4abe dfaa 0abf
-0.32642186 0.31999728 -0.05108898 -0.07669097 -0.55950034 0.03777095 -0.66027856 -0.05236187
-0.38274118 -0.7000442 -0.101585746 -0.26860812 0.06029244 0.016665775 -0.12979029 0.2408971
0.48146915 -0.6454879 0.57625693 1.269458 -0.9551247 -1.0219555 0.10102693 -1.3775072
0.75164944 0.10209237 0.1689916 0.603405 -0.74968565 -0.5944614 1.4871343 0.5637814
0.5720665 0.48650533 0.71067697 0.7441359 0.8544586 1.0979061 1.1076678 0.2676921
0.3328902 0.42271876 -0.40331513 0.11237357 0.020841314 -0.02402871 0.29771549 0.11610611
0.024910277 -0.031985622 -0.03578574 -0.3668548 -0.08978667 -0.17230713 -0.23364401 -0.60969543
0.45582795 -0.96133155 0.326349 0.17768665 -0.76792866 -0.51841 1.170934 0.93929774
-0.5568456 0.6158649 -0.32476273 -0.17133887 -0.5764599 1.0053835 -0.22587985 -0.072434425
0.2699152 -0.47362798 -0.6090823 0.1772635 -0.64576757 -0.63076943 -0.08065358 -0.9952307
-1.0424656 -0.22413738 -0.78395957 -0.25298837 0.18775009 0.17450324 -0.1088686 -0.119915485
0.17184126 -0.09474949 -0.19620785 -0.1652986 -0.03176912 -0.3314473 -0.11931887 -0.25730726
0.11468354 -0.4060511 0.4982568 0.8912649 -1.2106519 0.6352986 0.46005458 0.64302236
0.23579466 0.9149502 0.28765398 0.5182345 0.56138265 -0.53024673 0.6092549 -1.2401686
0.014564011 -0.16349885 -0.29012138 0.1228317 0.15851061 -0.07741149 -0.09617623 -0.08027253
-0.061644815 -0.087776594 -0.3687514 0.111985855 0.03957916 0.10066025 1.8658326 0.091937564
1.1324631 -0.5934375 -0.6150355 -0.43442753 -0.624087 -0.5975942 -0.61343485 -0.41771284
-0.38575855 -1.6660521 -0.47047836 -0.5707806 -0.8502229 0.9287425 -0.43520844 -0.5191637
-0.9166834 -0.5825667 -0.461832 -1.2004356 -0.7871086 -0.90276784 -0.72313493 -0.95167625
-0.09088025 -0.5034171 -0.16998076 0.050515372 0.56211567 0.71544725 0.67703587 -0.25098294
0.32125202 -0.6091517 -0.40944383 -0.0148090115 0.19622873 -0.9521444 0.21447144 0.749674
1.9408296 -0.45673075 -0.15270293 0.91526836 0.21560219 0.6429841 0.3905582 0.601863
1.1003946 0.44179255 0.6584112 0.094127186 0.86695653 0.46123344 0.36172047 1.3391535
0.6663908 -0.8886 -0.86302257 -1.0362827 -0.66602767 0.2380519 -0.060569644 0.15845902
-0.37586495 -0.83149564 -0.9808265 -1.060469 0.15181725 0.64246154 -0.10002577 0.7101744
0.029875642 0.8757989 0.027361857 0.7020463 0.27484608 0.29472417 -0.40339625 -0.34914717
0.4071115 0.6505372 -0.7511506 -0.17640384 -0.374474 0.16927078 0.14420807 -0.77228564
-0.08125222 -1.1930149 -1.3423431 -0.34146374 -0.34096232 -0.57020164 0.50268173 -0.8179207
0.8995788 -0.6104839 0.7094404 0.12915982 0.023273857 -0.835064 0.5363725 0.14669555
0.11349037 -1.5442394 -0.13779183 -1.378434 -0.55086094 -0.26321763 0.5295615 0.60706604
-0.008089727 0.8405091 0.5962879 -0.22262335 -0.935582 -0.16041829 -0.21785495 0.09185839
0.8071762 -0.39265195 -0.07832858 0.48959246 0.25403038 0.2986365 -0.19748071 -0.5416698

linear1.bias f4 [128]
00000000: f66a cbbe 201c 66bf b1e9 e5bf 166c d2be
00000010: 898f 35bf 20b6 e6be 0ee2 02bf 9e25 edbf
00000020: 4044 bfbe a50d 2f3f 0b24 703e cc30 90bf
00000030: 051c 36bf 9ad0 8c3c 0a75 ebbf c16a 08bd
00000040: 3bd9 4cbf a349 8abf 7685 8bbe 48bc 42bf
00000050: 8ccd d6be 6af8 49bf 1004 f2bf 321c 25bf
00000060: 22c1 6abe 2f27 c2be fce6 79be 62c9 8abe
00000070: 0dfb 9bbe 5cbb 31be 1089 40bf 2148 d3be
00000080: 4adb 55bf 6b53 2dbf 730b f7bf 9ab0 04bf
00000090: 8bf2 b5bf a65f acbd 598b 9a3c 98e5 c2bf
000000a0: 0e08 84be 9f91 89bf 552c 68bf 018b b6bf
000000b0: 1ec9 57bf be06 0dc0 9445 28bf e6fe 96be
000000c0: f35e 9abe 1f73 a23f 12f1 80bc e3df e2be
000000d0: f3bc 0abf a9bb 16bd 36b9 afbc a951 00c0
000000e0: 1981 49bf 8b75 b7bf ddbe e7be 9482 16bf
000000f0: 8b1a 4b3f 0b63 debe af05 a3bf 54d4 c53e
00000100: ed8d 91bd 4846 98be 125f e0be c598 cebe
00000110: 7245 bdbd 4a8d b3bf b791 89bf e79f 24bf
00000120: 3119 a6bf 1e13 e5bf bbec 853f f510 bb3f
00000130: b560 4a3f 2233 42be 1068 89bf 00a6 0abf
00000140: fc39 50be 5565 a63e d342 41bf 05e9 09c0
00000150: a393 45bf 73ec b1be a0ae 96bf 81d7 9cbf
00000160: 9c66 d8be f220 76bf 7b7b cebe eda2 0dbe
00000170: ddd3 c5be 7d89 9cbe 74fd 7fbe 3959 a13e
00000180: b88a d3be 4481 e3bf 9b52 9dbf 0a00 f3be
00000190: 5c02 8fbf 9e31 0540 22ca 9bbe 2ae4 94be
000001a0: f0f5 e8bf 9999 bdbf 3d8c 8ebe 987b dfbf
000001b0: c48a 513e df90 d0bf fad7 44bf 011a eebe
000001c0: 19bc 31bf e45b e4be b0ab 86be f958 fcbe
000001d0: c019 febe eb81 09c0 87e9 c5be 31e3 7fbe
000001e0: f862 ebbf 5cb2 b5be 6176 81be 55e4 fabe
000001f0: 036e 4dbf e78a 84be f0e4 d2bf fede 27be
-0.39730042 -0.89886665 -1.7961942 -0.41098088 -0.7092214 -0.45060825 -0.5112618 -1.8527105
-0.37356758 0.68380195 0.2345125 -1.1264892 -0.71136504 0.017189313 -1.8395092 -0.033304933
-0.8001897 -1.0803722 -0.2725026 -0.76068544 -0.41953695 -0.78894675 -1.890749 -0.6449615
-0.22925237 -0.3792052 -0.2440452 -0.27106768 -0.30464974 -0.17356628 -0.7520914 -0.41265967
-0.83537734 -0.6770541 -1.9300369 -0.5183197 -1.4214643 -0.08416681 0.018865274 -1.5226316
-0.25787395 -1.0747565 -0.90692645 -1.4261171 -0.84291255 -2.2035365 -0.6573117 -0.29491347
-0.30150566 1.2691382 -0.015739951 -0.44311437 -0.54194564 -0.03680006 -0.02145062 -2.0049841
-0.7871261 -1.4332746 -0.45262805 -0.58792996 0.79337376 -0.4343494 -1.273611 0.38638556
-0.07107148 -0.2974112 -0.43822533 -0.4035093 -0.09241761 -1.4027493 -1.0747594 -0.6430649
-1.2976438 -1.7896459 1.046287 1.461455 0.79053813 -0.18964818 -1.0734882 -0.54159546
-0.2033462 0.32499185 -0.7549259 -2.1548474 -0.771784 -0.3475071 -1.1772041 -1.2253267
-0.42265785 -0.9614402 -0.40328583 -0.13831683 -0.386382 -0.30573645 -0.24999028 0.31513384
-0.41316772 -1.7773824 -1.2290834 -0.47460967 -1.1172595 2.0811534 -0.30427653 -0.29080325
-1.8200054 -1.4812499 -0.27841368 -1.7459593 0.20463091 -1.6294211 -0.76892054 -0.46504214
-0.6942764 -0.44601357 -0.26302862 -0.4928663 -0.4962902 -2.1485546 -0.3865473 -0.2498901
-1.8389578 -0.3548764 -0.25285628 -0.4900233 -0.8024599 -0.25887224 -1.6476116 -0.16393659

linear2.weight f4 [128, 128]
00000000: be99 72bd 6719 08bd ca9d 3cbc a32e 9d3d
00000010: 57a6 a8bd 53fc a13c ec9d 2ebc f84b a4bd
00000020: 0fff a13d 5a87 b9bd 2ee4 5fbd 7fb8 b03d
00000030: 9e20 b0bd c5dc 19bd 0814 fc3c 56af a0bc
00000040: 440d 443d a3c3 64bd f4f9 aabc 607c 13bd
00000050: 1dde 0dbc 04f0 c7bd 7076 87bd ac3f 373d
00000060: fd3c 4f3d 2d07 2d3d c909 91bb 3787 863d
00000070: ca1b 11bd ae39 963c 4c18 27bc a12f 803d
00000080: 836f cbbd 2886 5fbd e089 bbbc 2ca4 d7bc
00000090: c119 83bd 86d0 523a 6b43 eb3a a979 95bd
000000a0: d76e 29bd 8047 bdbd cc50 4a3c efc8 a73d
000000b0: 6955 a63d 5205 033c 606f 13bc e7c9 153c
000000c0: 9bd7 c2bd be7f 06be fbbc 8c3d 9373 97bd
000000d0: 1ff2 5abd 8e89 7b3c 0666 143d cfd4 02be
000000e0: edba a2bd c114 ccbd 2c8b 1fbc b1e5 eebd
000000f0: 74cb a83c a633 a1bd 6100 1abd 542f bdbc
00000100: bd79 883d bdf0 efbd bf02 0cbd c3d9 a73d
00000110: 5288 56bd c195 5abd b3c3 aebc 8380 4a3c
00000120: 5be5 2e3c 342f 87bc d67e c73b 3f4b 39bd
00000130: 2b60 96bd 70b5 3f3c 7743 bebd 7d0f b5bd
00000140: 155e bfbd 004a d1bd 0b53 a03b f4ab f0bc
00000150: 8aff aabd 5fbf f3bd b233 033d 9c79 d6bc
00000160: 0d34 42bd 8139 933d 5589 a7bc 7761 0bbd
00000170: 11a2 1a3d af62 2cbd d684 7d3d b5c8 0abd
00000180: 7575 f43c ed36 983d 3fa0 933d 98dc 763d
00000190: 6620 d73c bf02 d1bd 8adc a33d e1be 943b
000001a0: 5838 12bd 5395 f9bd 3578 5fbd a0ed a8bd
000001b0: 83f1 96bd 2dbb 5cbc 1933 b3bd 177a 903d
000001c0: d457 21bc 28fb c73c 21aa febb 7f83 6cbd
000001d0: e97c 1dbd a121 f6bc 6714 b33c a9a0 453d
000001e0: 5362 1e3d db36 d4bd cd15 983b 90ca 093d
000001f0: 293a cbbd cc5e 39bd fbe6 983c a309 323c
00000200: 8539 1d3d c5aa c8bd 8390 9ebc d40a 8abd
00000210: 6f3e 72bd aa64 24bc 42fd 973c 5881 f0bc
00000220: edee 8f3b 6874 be3a 0c4f 1b3d a2f6 68bd
00000230: d1dd 2f3c 1634 96bd 44e1 fc3c dc73 d63c
00000240: ab5f 3bbd c2c2 29be d9dc f2bc 4215 74bd
00000250: 7e6a 82bd a71b 013b f0f4 49bc 8264 c4bd
00000260: 182f 83bd 2125 93bc 9f83 553d 850a 953d
00000270: e351 833d 350e 09be 40f6 fabc 4b75 9c3d
00000280: 11dd e2bc 99f3 a6bd 01ce a2bd 3383 ad3c
00000290: e809 313d fdd1 dcbc ae7c 02be a7a4 a6bd
000002a0: d58b 09be 66ca b2bc 923a bd3c 2b03 963c
000002b0: 7fed b9bd 957b ed3c 7c78 24bc ac54 a03c
000002c0: bfbc 81bd 2847 a8bd 4604 87bd 3c46 cc3b
000002d0: 802f 93bb a52a a7bd 02d9 6abd 0b35 59bb
000002e0: 87f0 d5bc 4b10 473d 0804 863d 79b7 12bd
000002f0: 40dd babd c125 d3ba be2a c7bd 566d eebd
00000300: 2ee5 603d 966e 56bd 10c8 193c 54ac 893d
00000310: fee6 f0bd 8b05 cebb e8a8 313c fde9 1dbd
00000320: 0687 08bc 5c4b 9d3c ea46 11be 1336 13bc
00000330: 88be 04be 07ce 8cbd 9897 30be c18d d2bd
00000340: 6ee6 323d e578 e0bd f7e0 00be 5c52 3f3c
00000350: 7ffc 94bb 2ae2 b43a b6be 7ebd 27e6 88bd
00000360: 143f 173d 260d 75bd dc97 4c3d 84c5 adbd
00000370: 9e4e 30bd ef1b 8bbd 9366 1b3d 7452 a0bd
00000380: 17f8 b8bd 4a8d bb3c 399b 9dbd a2b4 97bc
00000390: f391 b03c f299 c6bd 2d88 92bc 34a4 aabd
000003a0: 1541 3abd f80d 89bd 6dbb 973d 63d3 10bd
000003b0: d7df e6bd 0483 9bbb b6d2 07be dd38 8fbd
000003c0: 1bbb 97bd e527 97bd 6490 b6bd c941 babd
000003d0: a917 abbc 57d4 313c 9344 5a3d 3185 84bd
000003e0: 1fbe 11bd b0f5 6fbc 2c49 aebc 1368 473d
000003f0: 5a83 00bd 80a2 25bc b78b 033a 86d0 18bd
-0.05922865 -0.03322735 -0.011512229 0.07674911 -0.08234852 0.019773638 -0.010657769 -0.080223024
0.07909977 -0.090590194 -0.05466097 0.0862894 -0.08599971 -0.037564058 0.03077127 -0.019614857
0.047864214 -0.055850636 -0.02087114 -0.036007285 -0.008658913 -0.09762576 -0.06614387 0.044738457
0.050595272 0.04224317 -0.0044262153 0.06568759 -0.035426892 0.01833805 -0.010198664 0.062590845
-0.099333785 -0.0545713 -0.022892892 -0.0263234 -0.064013965 0.00080419367 0.0017949169 -0.072985955
-0.04136547 -0.09242153 0.012348365 0.08192622 0.081217594 0.007996874 -0.008998722 0.009142376
-0.0951378 -0.13134667 0.06871983 -0.07395091 -0.05345356 0.01535262 0.03623011 -0.12776493
-0.079458095 -0.09964896 -0.009737771 -0.11664904 0.020604827 -0.07871179 -0.037598018 -0.023093857
0.06663845 -0.11715839 -0.034182306 0.081958316 -0.0523761 -0.053365473 -0.021333551 0.012359741
0.0106748 -0.016502 0.006088118 -0.045237776 -0.07342561 0.011700973 -0.09290212 -0.08840845
-0.093441166 -0.102191925 0.004892712 -0.029378869 -0.083495215 -0.119017355 0.032031722 -0.026181035
-0.04741292 0.071887024 -0.020451227 -0.034028497 0.037752215 -0.0420863 0.06189426 -0.033882815
0.029841164 0.07432351 0.07208299 0.06026897 0.026260566 -0.10205602 0.08001049 0.004539356
-0.035698265 -0.121866845 -0.054557998 -0.08248448 -0.073702835 -0.013472361 -0.087499805 0.07054537
-0.0098476 0.024411753 -0.007771746 -0.057742592 -0.0384492 -0.030045332 0.021860315 0.04824892
0.038667988 -0.10362025 0.0046412707 0.033640444 -0.099232025 -0.04525642 0.018664828 0.010866555
0.038384933 -0.09798197 -0.019356018 -0.067403466 -0.059141573 -0.010033766 0.01855338 -0.02935855
0.004392496 0.0014530541 0.03791718 -0.056875832 0.0107340375 -0.07334153 0.030869134 0.026178293
-0.045745533 -0.165782 -0.029646324 -0.059590586 -0.06367968 0.001970032 -0.012326464 -0.09589483
-0.06405467 -0.01796204 0.052127477 0.07277397 0.06412103 -0.13384326 -0.030635 0.07639559
-0.027693303 -0.08151931 -0.079494484 0.021180725 0.043222338 -0.026955599 -0.12742874 -0.08136874
-0.13432248 -0.021825027 0.023099218 0.018312057 -0.09078502 0.028989593 -0.010038491 0.019571625
-0.063348286 -0.08216697 -0.06592612 0.0062339585 -0.0044917464 -0.08162431 -0.05733586 -0.0033143188
-0.026115669 0.048599523 0.06543738 -0.035819504 -0.09124231 -0.0016109274 -0.09724949 -0.11641948
0.054906063 -0.052351557 0.0093860775 0.06722322 -0.11762808 -0.006287282 0.010843493 -0.038553227
-0.008332973 0.019200973 -0.14187208 -0.00898506 -0.12963307 -0.06875234 -0.17245328 -0.10280944
0.043676786 -0.10960559 -0.12585817 0.011677351 -0.0045467014 0.0013800312 -0.062193595 -0.06684523
0.03692539 -0.059826992 0.049949512 -0.08484939 -0.043043725 -0.06792437 0.03793962 -0.07828227
-0.090316944 0.02289452 -0.07695622 -0.01851875 0.021553969 -0.096973315 -0.0178872 -0.083321005
-0.045472223 -0.066921175 0.074087955 -0.035357844 -0.11273163 -0.004745843 -0.13263974 -0.06993268
-0.074087344 -0.07380656 -0.08914259 -0.09094579 -0.020885305 0.010853848 0.053288054 -0.06470717
-0.035581704 -0.014645979 -0.021275125 0.048683237 -0.031375267 -0.010109544 0.00050180726 -0.03730824

linear2.bias f4 [128]
00000000: 09b6 49bc 73d7 19bd ad19 81be 25f0 05bf
00000010: bb85 b8be 212c ebbd 217d bebd c9cb 7abd
00000020: b2b9 82be f1f6 3c3b b0c4 89be 3e49 41be
00000030: d2c3 9bbe 8042 20be 5d70 cdbd 399d e5bd
00000040: 2303 35bf 6261 83bd 7078 6fbe c86d b1be
00000050: 663b bc3e 5621 86be d912 e2bd 7089 87be
00000060: 4f36 95be 67f5 043e 2804 78be b2f6 42be
00000070: a67a 763e fd19 0b3e 2036 15bf 6205 d33e
00000080: a501 cbbc 132c bdbc 2c5d 33bd 26fa 9b3f
00000090: 71f1 28be daa0 86be ceeb 41be df7e 8dbd
000000a0: 1901 6bbe 0ad7 1cbf 50c1 9abe b07c 05bf
000000b0: 3248 0e3f bec6 2ebe 3aa2 76be 193d 6bbe
000000c0: 3a55 19bd c101 b0be e8ec e7bd 8a48 b0be
000000d0: 1cd6 16be 79d7 bbbd c327 08bf 295e 283e
000000e0: e525 7bbe 7e30 00be 7c5a 6bbb 6675 05be
000000f0: 1a2d 063f 9179 cfbd 5094 89bf a9d0 38be
00000100: 9a60 063f ed8f ecbd f0ad dabe 6e51 c73f
00000110: b155 d6bd 92fb 5f3f 56be e4be b222 98bf
00000120: b0cf 44be d3d8 13bf 4a15 e5bd c124 8ebd
00000130: ddd7 97bc 4973 ecbd 9942 9dbd db8d 36be
00000140: 2929 433d bf58 74bd ca24 69be ca6c 7ebd
00000150: 37d6 e5bd 67ad f4be 322f abbe 6e82 d13e
00000160: 8e71 3bbe 0a09 dfbd f00d e33f e017 8ebb
00000170: 8854 84be 5d27 75be b851 cbbd 4d1f d7bd
00000180: 4e64 cd3f b980 74be e5d1 98be e2de eabd
00000190: b4f7 34bf 4391 45be a4f2 c7bd 56f7 48be
000001a0: dfb7 e9bd 161f 0dbf d121 64be 8a67 23be
000001b0: 0110 89bf 302a bbbe e4e9 9fbd ca3b 96bd
000001c0: e959 8abe debf 7bbe 9558 263e e9b7 89be
000001d0: 3adb 6cbd c72c e23f 9837 02be cefa 21be
000001e0: 43ef a8bd 870b 5cbe 0f36 9abd c395 53bd
000001f0: fa8a 40be 455f 5ebd 9f1e cdbe fd16 383c
-0.012311467 -0.037558984 -0.25214902 -0.52319556 -0.36039528 -0.11483026 -0.0930121 -0.0612295
-0.255323 0.0028833712 -0.26907873 -0.18875596 -0.30422837 -0.15650368 -0.10031197 -0.112116285
-0.7070791 -0.06415059 -0.23385787 -0.3465407 0.36764067 -0.26197308 -0.11038751 -0.26472044
-0.29142997 0.12984239 -0.24220335 -0.1903942 0.24070224 0.13584132 -0.58285713 0.41215044
-0.024781058 -0.023092305 -0.043790027 1.2185714 -0.16498353 -0.26294595 -0.18937609 -0.06908964
-0.22949637 -0.61265624 -0.3022561 -0.52143383 0.5557891 -0.17068002 -0.24085322 -0.22972526
-0.037434794 -0.34376338 -0.11324483 -0.34430343 -0.14730114 -0.091719575 -0.5318567 0.16442169
-0.24526174 -0.12518498 -0.0035912087 -0.13033065 0.5241257 -0.10130609 -1.0748386 -0.18048348
0.5249115 -0.11550889 -0.4271083 1.5571725 -0.10465563 0.8749324 -0.44676465 -1.1885588
-0.19219851 -0.5775272 -0.11185701 -0.06940604 -0.018535549 -0.115454264 -0.07678718 -0.17827551
0.047646675 -0.059654947 -0.2276794 -0.062115468 -0.11222499 -0.47788545 -0.33434445 0.40919822
-0.18305036 -0.10890396 1.7738628 -0.004336342 -0.25845742 -0.23940797 -0.09927696 -0.10504017
1.6046236 -0.23877229 -0.29847637 -0.11468293 -0.70690465 -0.19293694 -0.09763077 -0.19625601
-0.11412024 -0.5512556 -0.22278525 -0.15957466 -1.0708009 -0.36555624 -0.07808283 -0.073356226
-0.2702172 -0.2458491 0.16244729 -0.26898125 -0.05782626 1.7669915 -0.1271652 -0.1581833
-0.082487606 -0.21488772 -0.07529842 -0.051656496 -0.18803015 -0.054290075 -0.40062425 0.01123595

stream1.weight f4 [1, 128]
00000000: de5c dfbb 3e8b cc39 9207 9bba d98d 62bd
00000010: 6599 6dbd fc0f 183d 52cc 36bc 37e3 eabc
00000020: 3156 7cbe a9b7 9abc f2ea bfbe aa23 a4be
00000030: 13fa 3dbd 496f b2bd 62f1 11bd 7f91 b4bd
00000040: 47f3 a0bd 734c 10bf 3db4 c2bc 10ab f0be
00000050: 75ca 8ebd bb8d a33d ddec 50bd 17cd 263d
00000060: e546 05be b944 e7be 840e 553d 755f 2ebe
00000070: f0e5 8cbe a64a 3fbe 7c6a fdbb bc6a 5ebf
00000080: e138 52be 946d 57be 2c0b 9bbd 3d97 ad3e
00000090: d282 5dbd 1460 0fbd c07c 46bd 9bb5 15be
000000a0: 9390 b3bd fdc5 aabe 5f69 0dbe 8fde c3bd
000000b0: 52e1 b63b 53b5 81be e528 04be 6493 2abe
000000c0: 0f4b b03d ba17 3cbd 4d4d 54bc b056 c53b
000000d0: c396 92bc feb1 d13b 47ab 93be a321 f1bc
000000e0: bd06 ebbe 8e1c 2fbd 9841 bdbd b7ff d6bb
000000f0: 0e41 f5bd 3bc8 8cbc f724 2ebf 9dc5 81bd
00000100: d6ff 8abf 439d 3e3c 073f aabd f9fe 98bf
00000110: f30c 05bd 8500 88bd 708d bcbe 9897 33be
00000120: 02af e53b 2bcd cebc 2563 dabc 2eca d0bb
00000130: d052 b83d 27ba 87bc 4996 1dbd e4e5 b03c
00000140: 859a b4be 7e68 0cbf a4a6 93be 5296 443d
00000150: 68be b0bc 4ed5 10be f98e f63b d74c 91be
00000160: 6e9a 173d 97e1 b2bc ddce 0c3f 4daf 7cbe
00000170: f1ac 11be a240 623c a747 b3bd a1a1 e9bd
00000180: 62b0 233f a3fd 3ebd 958e c4bc de64 39be
00000190: aa7f 20be 6794 c9bc 35ab a13c 19ec b2be
000001a0: 096c 26bb 27b8 e7bd bdc3 cbbd a007 c5bd
000001b0: da02 febd 8af0 9bbd 0a4d bbbd 37b6 8fbc
000001c0: 0b0c 933b d22a 5f3d e261 75be 6993 50be
000001d0: 2f09 de3a 1382 62be 9330 b6bd 59d9 12bc
000001e0: 2aec 193a d342 9bbe 0596 8abd fa8f cc3c
000001f0: 0362 83bc 983f 3d3b b60e 4ebc 2900 02bd
-0.0068164906 0.00039013656 -0.0011827818 -0.055311058 -0.058007617 0.03712462 -0.011157112 -0.028672798
-0.24642254 -0.018886404 -0.37483937 -0.3205846 -0.046381067 -0.08712632 -0.03563059 -0.08816814
-0.078589015 -0.5636665 -0.023767585 -0.4700551 -0.06972209 0.07986017 -0.05100714 0.040722933
-0.13015325 -0.4516962 0.052015796 -0.17028601 -0.27519178 -0.1868082 -0.007733641 -0.86881614
-0.2052951 -0.21037894 -0.0757049 0.33904448 -0.054079838 -0.035003737 -0.048458815 -0.14620058
-0.0876781 -0.33354178 -0.13809727 -0.09563934 0.0055810595 -0.25333652 -0.12906225 -0.16657788
0.08608066 -0.045921065 -0.012957883 0.006022297 -0.017894154 0.006399392 -0.28841612 -0.029434985
-0.45903578 -0.04275184 -0.09241027 -0.0065612453 -0.11975299 -0.017185321 -0.68025154 -0.0633652
-1.0859325 0.011634174 -0.08312803 -1.1952811 -0.032483052 -0.06640724 -0.36826658 -0.17538297
0.007009388 -0.025244316 -0.026658604 -0.006371758 0.0900017 -0.016568257 -0.0384734 0.021593995
-0.3527414 -0.5484694 -0.28838074 0.04799492 -0.021575168 -0.1414387 0.007524368 -0.28378937
0.03701251 -0.021836085 0.5500315 -0.24676247 -0.14226128 0.013809355 -0.08753901 -0.114077814
0.63941014 -0.046628606 -0.02399377 -0.18104884 -0.156737 -0.024606897 0.019734958 -0.34945753
-0.0025393984 -0.11314421 -0.099494435 -0.09620595 -0.12402888 -0.076142386 -0.091455534 -0.017542941
0.0044875196 0.054484196 -0.2396312 -0.20368733 0.0016939993 -0.22119932 -0.088959835 -0.0089629525
0.0005871678 -0.3032442 -0.06766895 0.024970997 -0.016037947 0.0028877016 -0.01257675 -0.031738434

stream2.weight f4 [3, 128]
00000000: bf4f 3abb aeff bfbc b641 de3d 19d1 743c
00000010: 1cb8 8dbd f981 1c3d 0264 d0bb b23a ff3d
00000020: 331f 753e 1142 0fbd a57c 97bf a6a4 a33e
00000030: fbe9 653d e3d4 373d 7659 5ebd a931 c23d
00000040: 6a45 11be 0b3b b63e 1e08 033e 6bc5 ff3e
00000050: c9cc ab3c 9932 cf3c cd68 ce3c 1177 e23d
00000060: 8f0e e03d dbee f33e b178 85bd 9507 56be
00000070: c79a a83e dcf0 ef3c 5d98 97bc af62 6a3f
00000080: 3f0b 85be d59b ae3e a1e0 d33c ccc6 0d3e
00000090: 9fbe 743a 08f5 c3bd c5e9 703d c3e8 253e
000000a0: d6f0 e13c cb9b a93d ce6a 433e b600 773c
000000b0: d4c0 ffbe 64ba 363e 9f3c febd 1e7a 563e
000000c0: b0e6 683d b811 b33b 7ad9 9b3c e02c 3f3e
000000d0: ff17 403d 8697 493d b86a 9fbe 9019 b33d
000000e0: 4264 99be d1e3 df3c 945c 053e 7135 5e3c
000000f0: ae8d 0f3e 1e08 87bc c0fc b2bd 35d5 59be
00000100: abac 7d3f 5640 d53d b5eb 933e a5a5 37bf
00000110: aea6 1cbc 96a7 003e a139 9abe 40f8 14bd
00000120: 4555 153d 6e2b ed3c fac6 f8bd 5729 40bd
00000130: 5bd8 6ebd 1970 67bd cad5 febc 2b43 a0bd
00000140: 36d5 d63e a2b5 623d 45fe c6be 7c02 dd3a
00000150: 8fdb f5bc 0d8a b3be f5ab c1bd f9b3 163f
00000160: 94ce b3be e146 a0bc 7d24 2abd 12ed 0bbf
00000170: e53b 913e c987 0bbd dbd6 0c3f 6fd7 243e
00000180: 54bd f9bd 6a17 de3c c387 f03d 5910 94be
00000190: 6016 a5be ddfa fe3d 0a2c 36bd 79b2 823e
000001a0: 8419 ec3a b8fd 1dbe a85b c43d 3530 1f3e
000001b0: 638e f3bd 8e47 233c 7206 a1bd 224d 4fbd
000001c0: 8c47 54be 77ca ea3d d889 22be a336 8cbd
000001d0: 5781 013c 2a38 593f 0e0f 333e 6d41 9e39
000001e0: 0067 e73a 6fd6 b83e c20e 343d 01ad 863d
000001f0: c464 9dbd 3905 f63c 9efb 6a3d a1ab 76bb
00000200: 5f94 3e3c 20fe 01be 7912 0dbd 4d0d 653e
00000210: 36f5 c43d 6ffb eaba 41d4 bcbd af86 febb
00000220: 6918 083e fe7f 0a3c ad7d 803f 0453 1abf
00000230: 50f3 b23a 71dc 4abd 21ff 13be 8fbf 80bd
00000240: 88a6 bc3d 575b 98bf d96f 8fbd 9129 033d
00000250: 58c1 b83d 4d36 0abe cf79 1ebd bdf5 44bd
00000260: 4e86 81be 48c8 ac3e ceb9 adb9 f96b 973e
00000270: e116 eb3d 15ad 143e 90c8 8bbd b227 f1bf
00000280: b321 a63e 51dc adbe 5017 c4bd 3905 93be
00000290: b72c aebc d1aa 5e3d dabb d43d 3fe3 2c3e
000002a0: 41fd 9fbd 58f7 3f3f 8954 c9be b5eb 16be
000002b0: 57fe 433f 0fda 5ebd ca71 823e 1bdb 263e
000002c0: ac78 713d f7f4 99bc d27c 1cbd 656e 81bd
000002d0: ff60 953d 03d2 4dbd c9e9 223f b9c2 da3d
000002e0: ba07 1c3f fe3c b13d 6ed4 c53c be46 5cbb
000002f0: 6bd1 123f 24c7 bdbd 726a 3abf e5b1 a63d
00000300: 25a9 743f d689 04be dac8 ca3b 40c7 fd3f
00000310: f2a7 18ba 262c c43e 74bd 053f 1132 f4be
00000320: 5330 90bd e115 9a3e 853d 98be afe4 953c
00000330: ddd1 45bc 67f5 1fbd 934d 5a3c f0d8 9fbd
00000340: 9832 8d3f 8c3c 2d3f f5e5 cc3e 7aef a33d
00000350: 8281 3ebd debe ce3e 2b9f 8e3d ec85 363e
00000360: 7ced 0dbf bfb3 713d 546d a43d 7582 d53e
00000370: 6894 86be ed5a 3fbc 16a3 6dbf f3e9 e53d
00000380: 31d1 343e b623 693d 781a 313e 84d0 613e
00000390: 60af 973a bf33 083d b06c e03c 6ebb e0be
000003a0: 2af1 233d d86c babe e4ac 81be 40c4 5bbe
000003b0: 5c80 9b3e 8257 88bd 9718 eb3d 2f71 fabc
000003c0: 44d2 2f3e 0d45 edbd 249f f13e 805e 943e
000003d0: 84aa ce3b d40b 12bf 200a 9abe b444 aaba
000003e0: dc1b ec3c b4e3 ef3e 1dfa ed3c 8c11 463d
000003f0: 0ac0 523e a76b b53d 414b e7bd 167b 50bd
-0.002842888 -0.023437347 0.10852377 0.014942431 -0.06919882 0.03820989 -0.006359578 0.12462367
0.23937683 -0.034975115 -1.1834913 0.31961554 0.056131344 0.04488076 -0.054284535 0.09482128
-0.14186636 0.3559192 0.12796065 0.49955305 0.020971673 0.025292682 0.025196457 0.11057866
0.10940277 0.4764317 -0.06517161 -0.2090133 0.32930586 0.029289655 -0.01850527 0.9155683
-0.25985143 0.34103265 0.025863947 0.13845366 0.0009336266 -0.095682204 0.05881669 0.16202073
0.02758066 0.08281668 0.19083712 0.015075853 -0.49951804 0.1784454 -0.12413906 0.20945022
0.056860626 0.0054647587 0.0190246 0.18669462 0.046897884 0.04921677 -0.31136107 0.0874511
-0.29959303 0.027330311 0.13023597 0.013562546 0.1401889 -0.016483363 -0.087396145 -0.21272738
0.99091595 0.10412662 0.28890768 -0.7173713 -0.009561224 0.12563929 -0.30122092 -0.036369562
0.036458272 0.028951373 -0.12147327 -0.046914425 -0.0583118 -0.05650339 -0.031107802 -0.07825311
0.41959542 0.055349 -0.38865867 0.0016861702 -0.03001192 -0.35066262 -0.09456626 0.58868366
-0.35118544 -0.019565048 -0.041538704 -0.54658616 0.28366008 -0.03406504 0.55015343 0.16097806
-0.121943146 0.027110774 0.117446445 -0.28918722 -0.32243633 0.12450192 -0.044475593 0.2552679
0.0018012975 -0.15428817 0.095877945 0.15545733 -0.118923925 0.00996579 -0.078625575 -0.05061067
-0.20730418 0.11464398 -0.15872896 -0.068463586 0.007904372 0.84851325 0.17486212 0.00030184854
0.0017654598 0.361011 0.043959387 0.065759666 -0.07685235 0.030031787 0.057368867 -0.003763892
0.011632054 -0.12694597 -0.034441445 0.22368355 0.09617083 -0.0017927716 -0.09220172 -0.0077675204
0.13290562 0.008453367 1.0038353 -0.6028292 0.0013652835 -0.049526636 -0.14452793 -0.06286537
0.09211451 -1.1902875 -0.07003755 0.032022063 0.090212524 -0.13497277 -0.038690384 -0.048085917
-0.2529778 0.33746552 -0.00033135567 0.29574564 0.11478973 0.1451915 -0.06825364 -1.8840239
0.32447585 -0.3395715 -0.09574759 -0.28714922 -0.021261556 0.054362122 0.10387392 0.16883563
-0.07811976 0.7498679 -0.39322308 -0.14738353 0.76559967 -0.054407176 0.2547744 0.1629452
0.058952972 -0.018793566 -0.038204975 -0.06319884 0.07293891 -0.05024911 0.6363798 0.10681672
0.6094929 0.086542115 0.024149146 -0.0033611502 0.57350796 -0.09266499 -0.7281867 0.081393994
0.95570594 -0.12943205 0.006188494 1.9826431 -0.00058233656 0.38314933 0.5224221 -0.47694448
-0.07040467 0.30094817 -0.29734436 0.018297521 -0.012073961 -0.039052393 0.013324159 -0.078050494
1.1031065 0.6767051 0.40019193 0.08004661 -0.046510227 0.40379995 0.06963953 0.17824525
-0.554405 0.05900931 0.08028665 0.41701093 -0.262851 -0.011679393 -0.92826974 0.11226263
0.17657925 0.056918822 0.17295253 0.22052199 0.0011572652 0.033252474 0.027395576 -0.43892998
0.040024914 -0.36411166 -0.25327218 -0.21461582 0.30371368 -0.06657316 0.114792995 -0.030571548
0.17170054 -0.11585436 0.47191727 0.28978348 0.006306948 -0.570493 -0.3008585 -0.0012990446
0.028821878 0.4685341 0.029049927 0.048356578 0.2058107 0.08858424 -0.112936504 -0.050898634

stream2.bias f4 [3]
00000000: 4959 d53f 8134 61bf 5e58 5bbf
1.6667873 -0.8797074 -0.8568171
